…
 TecoRAND     | 2.0.1 (/opt/tecoai/lib64/libtecorand.so)
 TCCL         | 1.23.0 (/opt/tecoai/lib64/libtccl.so)
--------------+------------------------------------------------
07/11 12:29:50 PM Namespace(exp_name='spos_c10_train_supernet', layers=20, num_choices=4, batch_size=64, epochs=600, num_steps=100, lr=0.025, momentum=0.9, weight_decay=0.0003, print_freq=100, val_interval=5, save_path='./checkpoints/', seed=0, data_path='data/teco-data/', classes=10, dataset='cifar10', cutout=True, cutout_length=16, auto_aug=True, resize=True, device=device(type='sdaa'))
07/11 12:29:55 PM SinglePath_OneShot(
  (stem): Sequential(
    (0): Conv2d(3, 16, kernel_size=(3, 3), stride=(2, 2), padding=(1, 1), bias=False)
    (1): BatchNorm2d(16, eps=1e-05, momentum=0.1, affine=False, track_running_stats=True)
    (2): ReLU6(inplace=True)
  )
  (choice_block): ModuleList(
    (0): ModuleList(
      (0): Choice_Block(
        (cb_main): Sequential(
          (0): Conv2d(16, 32, kernel_size=(1, 1), stride=(1, 1), bias=False)
          (1): BatchNorm2d(32, eps=1e-05, momentum=0.1, affine=False, track_running_stats=True)
          (2): ReLU(inplace=True)
          (3): Conv2d(32, 32, kernel_size=(3, 3), stride=(2, 2), padding=(1, 1), groups=32, bias=False)
          (4): BatchNorm2d(32, eps=1e-05, momentum=0.1, affine=False, track_running_stats=True)
          (5): Conv2d(32, 48, kernel_size=(1, 1), stride=(1, 1), bias=False)
          (6): BatchNorm2d(48, eps=1e-05, momentum=0.1, affine=False, track_running_stats=True)
          (7): ReLU(inplace=True)
        )
        (cb_proj): Sequential(
          (0): Conv2d(16, 16, kernel_size=(3, 3), stride=(2, 2), padding=(1, 1), groups=16, bias=False)
          (1): BatchNorm2d(16, eps=1e-05, momentum=0.1, affine=False, track_running_stats=True)
          (2): Conv2d(16, 16, kernel_size=(1, 1), stride=(1, 1), bias=False)
          (3): BatchNorm2d(16, eps=1e-05, momentum=0.1, affine=False, track_running_stats=True)
          (4): ReLU(inplace=True)
        )
      )
      (1): Choice_Block(
        (cb_main): Sequential(
          (0): Conv2d(16, 32, kernel_size=(1, 1), stride=(1, 1), bias=False)
          (1): BatchNorm2d(32, eps=1e-05, momentum=0.1, affine=False, track_running_stats=True)
          (2): ReLU(inplace=True)
          (3): Conv2d(32, 32, kernel_size=(5, 5), stride=(2, 2), padding=(2, 2), groups=32, bias=False)
          (4): BatchNorm2d(32, eps=1e-05, momentum=0.1, affine=False, track_running_stats=True)
          (5): Conv2d(32, 48, kernel_size=(1, 1), stride=(1, 1), bias=False)
          (6): BatchNorm2d(48, eps=1e-05, momentum=0.1, affine=False, track_running_stats=True)
          (7): ReLU(inplace=True)
        )
        (cb_proj): Sequential(
          (0): Conv2d(16, 16, kernel_size=(5, 5), stride=(2, 2), padding=(2, 2), groups=16, bias=False)
          (1): BatchNorm2d(16, eps=1e-05, momentum=0.1, affine=False, track_running_stats=True)
          (2): Conv2d(16, 16, kernel_size=(1, 1), stride=(1, 1), bias=False)
          (3): BatchNorm2d(16, eps=1e-05, momentum=0.1, affine=False, track_running_stats=True)
          (4): ReLU(inplace=True)
        )
      )
      (2): Choice_Block(
        (cb_main): Sequential(
          (0): Conv2d(16, 32, kernel_size=(1, 1), stride=(1, 1), bias=False)
          (1): BatchNorm2d(32, eps=1e-05, momentum=0.1, affine=False, track_running_stats=True)
          (2): ReLU(inplace=True)
          (3): Conv2d(32, 32, kernel_size=(7, 7), stride=(2, 2), padding=(3, 3), groups=32, bias=False)
          (4): BatchNorm2d(32, eps=1e-05, momentum=0.1, affine=False, track_running_stats=True)
          (5): Conv2d(32, 48, kernel_size=(1, 1), stride=(1, 1), bias=False)
          (6): BatchNorm2d(48, eps=1e-05, momentum=0.1, affine=False, track_running_stats=True)
          (7): ReLU(inplace=True)
        )
        (cb_proj): Sequential(
          (0): Conv2d(16, 16, kernel_size=(7, 7), stride=(2, 2), padding=(3, 3), groups=16, bias=False)
          (1): BatchNorm2d(16, eps=1e-05, momentum=0.1, affine=False, track_running_stats=True)
          (2): Conv2d(16, 16, kernel_size=(1, 1), stride=(1, 1), bias=False)
          (3): BatchNorm2d(16, eps=1e-05, momentum=0.1, affine=False, track_running_stats=True)
          (4): ReLU(inplace=True)
        )
      )
      (3): Choice_Block_x(
        (cb_main): Sequential(
          (0): Conv2d(16, 16, kernel_size=(3, 3), stride=(2, 2), padding=(1, 1), groups=16, bias=False)
          (1): BatchNorm2d(16, eps=1e-05, momentum=0.1, affine=False, track_running_stats=True)
          (2): Conv2d(16, 32, kernel_size=(1, 1), stride=(1, 1), bias=False)
          (3): BatchNorm2d(32, eps=1e-05, momentum=0.1, affine=False, track_running_stats=True)
          (4): ReLU(inplace=True)
          (5): Conv2d(32, 32, kernel_size=(3, 3), stride=(1, 1), padding=(1, 1), groups=32, bias=False)
          (6): BatchNorm2d(32, eps=1e-05, momentum=0.1, affine=False, track_running_stats=True)
          (7): Conv2d(32, 32, kernel_size=(1, 1), stride=(1, 1), bias=False)
          (8): BatchNorm2d(32, eps=1e-05, momentum=0.1, affine=False, track_running_stats=True)
          (9): ReLU(inplace=True)
          (10): Conv2d(32, 32, kernel_size=(3, 3), stride=(1, 1), padding=(1, 1), groups=32, bias=False)
          (11): BatchNorm2d(32, eps=1e-05, momentum=0.1, affine=False, track_running_stats=True)
          (12): Conv2d(32, 48, kernel_size=(1, 1), stride=(1, 1), bias=False)
          (13): BatchNorm2d(48, eps=1e-05, momentum=0.1, affine=False, track_running_stats=True)
          (14): ReLU(inplace=True)
        )
        (cb_proj): Sequential(
          (0): Conv2d(16, 16, kernel_size=(3, 3), stride=(2, 2), padding=(1, 1), groups=16, bias=False)
          (1): BatchNorm2d(16, eps=1e-05, momentum=0.1, affine=False, track_running_stats=True)
          (2): Conv2d(16, 16, kernel_size=(1, 1), stride=(1, 1), bias=False)
          (3): BatchNorm2d(16, eps=1e-05, momentum=0.1, affine=False, track_running_stats=True)
          (4): ReLU(inplace=True)
        )
      )
    )
    (1-3): 3 x ModuleList(
      (0): Choice_Block(
        (cb_main): Sequential(
          (0): Conv2d(32, 32, kernel_size=(1, 1), stride=(1, 1), bias=False)
          (1): BatchNorm2d(32, eps=1e-05, momentum=0.1, affine=False, track_running_stats=True)
          (2): ReLU(inplace=True)
          (3): Conv2d(32, 32, kernel_size=(3, 3), stride=(1, 1), padding=(1, 1), groups=32, bias=False)
          (4): BatchNorm2d(32, eps=1e-05, momentum=0.1, affine=False, track_running_stats=True)
          (5): Conv2d(32, 32, kernel_size=(1, 1), stride=(1, 1), bias=False)
          (6): BatchNorm2d(32, eps=1e-05, momentum=0.1, affine=False, track_running_stats=True)
          (7): ReLU(inplace=True)
        )
      )
      (1): Choice_Block(
        (cb_main): Sequential(
          (0): Conv2d(32, 32, kernel_size=(1, 1), stride=(1, 1), bias=False)
          (1): BatchNorm2d(32, eps=1e-05, momentum=0.1, affine=False, track_running_stats=True)
          (2): ReLU(inplace=True)
          (3): Conv2d(32, 32, kernel_size=(5, 5), stride=(1, 1), padding=(2, 2), groups=32, bias=False)
          (4): BatchNorm2d(32, eps=1e-05, momentum=0.1, affine=False, track_running_stats=True)
          (5): Conv2d(32, 32, kernel_size=(1, 1), stride=(1, 1), bias=False)
          (6): BatchNorm2d(32, eps=1e-05, momentum=0.1, affine=False, track_running_stats=True)
          (7): ReLU(inplace=True)
        )
      )
      (2): Choice_Block(
        (cb_main): Sequential(
          (0): Conv2d(32, 32, kernel_size=(1, 1), stride=(1, 1), bias=False)
          (1): BatchNorm2d(32, eps=1e-05, momentum=0.1, affine=False, track_running_stats=True)
          (2): ReLU(inplace=True)
          (3): Conv2d(32, 32, kernel_size=(7, 7), stride=(1, 1), padding=(3, 3), groups=32, bias=False)
          (4): BatchNorm2d(32, eps=1e-05, momentum=0.1, affine=False, track_running_stats=True)
          (5): Conv2d(32, 32, kernel_size=(1, 1), stride=(1, 1), bias=False)
          (6): BatchNorm2d(32, eps=1e-05, momentum=0.1, affine=False, track_running_stats=True)
          (7): ReLU(inplace=True)
        )
      )
      (3): Choice_Block_x(
        (cb_main): Sequential(
          (0): Conv2d(32, 32, kernel_size=(3, 3), stride=(1, 1), padding=(1, 1), groups=32, bias=False)
          (1): BatchNorm2d(32, eps=1e-05, momentum=0.1, affine=False, track_running_stats=True)
          (2): Conv2d(32, 32, kernel_size=(1, 1), stride=(1, 1), bias=False)
          (3): BatchNorm2d(32, eps=1e-05, momentum=0.1, affine=False, track_running_stats=True)
          (4): ReLU(inplace=True)
          (5): Conv2d(32, 32, kernel_size=(3, 3), stride=(1, 1), padding=(1, 1), groups=32, bias=False)
          (6): BatchNorm2d(32, eps=1e-05, momentum=0.1, affine=False, track_running_stats=True)
          (7): Conv2d(32, 32, kernel_size=(1, 1), stride=(1, 1), bias=False)
          (8): BatchNorm2d(32, eps=1e-05, momentum=0.1, affine=False, track_running_stats=True)
          (9): ReLU(inplace=True)
          (10): Conv2d(32, 32, kernel_size=(3, 3), stride=(1, 1), padding=(1, 1), groups=32, bias=False)
          (11): BatchNorm2d(32, eps=1e-05, momentum=0.1, affine=False, track_running_stats=True)
          (12): Conv2d(32, 32, kernel_size=(1, 1), stride=(1, 1), bias=False)
          (13): BatchNorm2d(32, eps=1e-05, momentum=0.1, affine=False, track_running_stats=True)
          (14): ReLU(inplace=True)
        )
      )
    )
    (4): ModuleList(
      (0): Choice_Block(
        (cb_main): Sequential(
          (0): Conv2d(64, 80, kernel_size=(1, 1), stride=(1, 1), bias=False)
          (1): BatchNorm2d(80, eps=1e-05, momentum=0.1, affine=False, track_running_stats=True)
          (2): ReLU(inplace=True)
          (3): Conv2d(80, 80, kernel_size=(3, 3), stride=(2, 2), padding=(1, 1), groups=80, bias=False)
          (4): BatchNorm2d(80, eps=1e-05, momentum=0.1, affine=False, track_running_stats=True)
          (5): Conv2d(80, 96, kernel_size=(1, 1), stride=(1, 1), bias=False)
          (6): BatchNorm2d(96, eps=1e-05, momentum=0.1, affine=False, track_running_stats=True)
          (7): ReLU(inplace=True)
        )
        (cb_proj): Sequential(
          (0): Conv2d(64, 64, kernel_size=(3, 3), stride=(2, 2), padding=(1, 1), groups=64, bias=False)
          (1): BatchNorm2d(64, eps=1e-05, momentum=0.1, affine=False, track_running_stats=True)
          (2): Conv2d(64, 64, kernel_size=(1, 1), stride=(1, 1), bias=False)
          (3): BatchNorm2d(64, eps=1e-05, momentum=0.1, affine=False, track_running_stats=True)
          (4): ReLU(inplace=True)
        )
      )
      (1): Choice_Block(
        (cb_main): Sequential(
          (0): Conv2d(64, 80, kernel_size=(1, 1), stride=(1, 1), bias=False)
          (1): BatchNorm2d(80, eps=1e-05, momentum=0.1, affine=False, track_running_stats=True)
          (2): ReLU(inplace=True)
          (3): Conv2d(80, 80, kernel_size=(5, 5), stride=(2, 2), padding=(2, 2), groups=80, bias=False)
          (4): BatchNorm2d(80, eps=1e-05, momentum=0.1, affine=False, track_running_stats=True)
          (5): Conv2d(80, 96, kernel_size=(1, 1), stride=(1, 1), bias=False)
          (6): BatchNorm2d(96, eps=1e-05, momentum=0.1, affine=False, track_running_stats=True)
          (7): ReLU(inplace=True)
        )
        (cb_proj): Sequential(
          (0): Conv2d(64, 64, kernel_size=(5, 5), stride=(2, 2), padding=(2, 2), groups=64, bias=False)
          (1): BatchNorm2d(64, eps=1e-05, momentum=0.1, affine=False, track_running_stats=True)
          (2): Conv2d(64, 64, kernel_size=(1, 1), stride=(1, 1), bias=False)
          (3): BatchNorm2d(64, eps=1e-05, momentum=0.1, affine=False, track_running_stats=True)
          (4): ReLU(inplace=True)
        )
      )
      (2): Choice_Block(
        (cb_main): Sequential(
          (0): Conv2d(64, 80, kernel_size=(1, 1), stride=(1, 1), bias=False)
          (1): BatchNorm2d(80, eps=1e-05, momentum=0.1, affine=False, track_running_stats=True)
          (2): ReLU(inplace=True)
          (3): Conv2d(80, 80, kernel_size=(7, 7), stride=(2, 2), padding=(3, 3), groups=80, bias=False)
          (4): BatchNorm2d(80, eps=1e-05, momentum=0.1, affine=False, track_running_stats=True)
          (5): Conv2d(80, 96, kernel_size=(1, 1), stride=(1, 1), bias=False)
          (6): BatchNorm2d(96, eps=1e-05, momentum=0.1, affine=False, track_running_stats=True)
          (7): ReLU(inplace=True)
        )
        (cb_proj): Sequential(
          (0): Conv2d(64, 64, kernel_size=(7, 7), stride=(2, 2), padding=(3, 3), groups=64, bias=False)
          (1): BatchNorm2d(64, eps=1e-05, momentum=0.1, affine=False, track_running_stats=True)
          (2): Conv2d(64, 64, kernel_size=(1, 1), stride=(1, 1), bias=False)
          (3): BatchNorm2d(64, eps=1e-05, momentum=0.1, affine=False, track_running_stats=True)
          (4): ReLU(inplace=True)
        )
      )
      (3): Choice_Block_x(
        (cb_main): Sequential(
          (0): Conv2d(64, 64, kernel_size=(3, 3), stride=(2, 2), padding=(1, 1), groups=64, bias=False)
          (1): BatchNorm2d(64, eps=1e-05, momentum=0.1, affine=False, track_running_stats=True)
          (2): Conv2d(64, 80, kernel_size=(1, 1), stride=(1, 1), bias=False)
          (3): BatchNorm2d(80, eps=1e-05, momentum=0.1, affine=False, track_running_stats=True)
          (4): ReLU(inplace=True)
          (5): Conv2d(80, 80, kernel_size=(3, 3), stride=(1, 1), padding=(1, 1), groups=80, bias=False)
          (6): BatchNorm2d(80, eps=1e-05, momentum=0.1, affine=False, track_running_stats=True)
          (7): Conv2d(80, 80, kernel_size=(1, 1), stride=(1, 1), bias=False)
          (8): BatchNorm2d(80, eps=1e-05, momentum=0.1, affine=False, track_running_stats=True)
          (9): ReLU(inplace=True)
          (10): Conv2d(80, 80, kernel_size=(3, 3), stride=(1, 1), padding=(1, 1), groups=80, bias=False)
          (11): BatchNorm2d(80, eps=1e-05, momentum=0.1, affine=False, track_running_stats=True)
          (12): Conv2d(80, 96, kernel_size=(1, 1), stride=(1, 1), bias=False)
          (13): BatchNorm2d(96, eps=1e-05, momentum=0.1, affine=False, track_running_stats=True)
          (14): ReLU(inplace=True)
        )
        (cb_proj): Sequential(
          (0): Conv2d(64, 64, kernel_size=(3, 3), stride=(2, 2), padding=(1, 1), groups=64, bias=False)
          (1): BatchNorm2d(64, eps=1e-05, momentum=0.1, affine=False, track_running_stats=True)
          (2): Conv2d(64, 64, kernel_size=(1, 1), stride=(1, 1), bias=False)
          (3): BatchNorm2d(64, eps=1e-05, momentum=0.1, affine=False, track_running_stats=True)
          (4): ReLU(inplace=True)
        )
      )
    )
    (5-7): 3 x ModuleList(
      (0): Choice_Block(
        (cb_main): Sequential(
          (0): Conv2d(80, 80, kernel_size=(1, 1), stride=(1, 1), bias=False)
          (1): BatchNorm2d(80, eps=1e-05, momentum=0.1, affine=False, track_running_stats=True)
          (2): ReLU(inplace=True)
          (3): Conv2d(80, 80, kernel_size=(3, 3), stride=(1, 1), padding=(1, 1), groups=80, bias=False)
          (4): BatchNorm2d(80, eps=1e-05, momentum=0.1, affine=False, track_running_stats=True)
          (5): Conv2d(80, 80, kernel_size=(1, 1), stride=(1, 1), bias=False)
          (6): BatchNorm2d(80, eps=1e-05, momentum=0.1, affine=False, track_running_stats=True)
          (7): ReLU(inplace=True)
        )
      )
      (1): Choice_Block(
        (cb_main): Sequential(
          (0): Conv2d(80, 80, kernel_size=(1, 1), stride=(1, 1), bias=False)
          (1): BatchNorm2d(80, eps=1e-05, momentum=0.1, affine=False, track_running_stats=True)
          (2): ReLU(inplace=True)
          (3): Conv2d(80, 80, kernel_size=(5, 5), stride=(1, 1), padding=(2, 2), groups=80, bias=False)
          (4): BatchNorm2d(80, eps=1e-05, momentum=0.1, affine=False, track_running_stats=True)
          (5): Conv2d(80, 80, kernel_size=(1, 1), stride=(1, 1), bias=False)
          (6): BatchNorm2d(80, eps=1e-05, momentum=0.1, affine=False, track_running_stats=True)
          (7): ReLU(inplace=True)
        )
      )
      (2): Choice_Block(
        (cb_main): Sequential(
          (0): Conv2d(80, 80, kernel_size=(1, 1), stride=(1, 1), bias=False)
          (1): BatchNorm2d(80, eps=1e-05, momentum=0.1, affine=False, track_running_stats=True)
          (2): ReLU(inplace=True)
          (3): Conv2d(80, 80, kernel_size=(7, 7), stride=(1, 1), padding=(3, 3), groups=80, bias=False)
          (4): BatchNorm2d(80, eps=1e-05, momentum=0.1, affine=False, track_running_stats=True)
          (5): Conv2d(80, 80, kernel_size=(1, 1), stride=(1, 1), bias=False)
          (6): BatchNorm2d(80, eps=1e-05, momentum=0.1, affine=False, track_running_stats=True)
          (7): ReLU(inplace=True)
        )
      )
      (3): Choice_Block_x(
        (cb_main): Sequential(
          (0): Conv2d(80, 80, kernel_size=(3, 3), stride=(1, 1), padding=(1, 1), groups=80, bias=False)
          (1): BatchNorm2d(80, eps=1e-05, momentum=0.1, affine=False, track_running_stats=True)
          (2): Conv2d(80, 80, kernel_size=(1, 1), stride=(1, 1), bias=False)
          (3): BatchNorm2d(80, eps=1e-05, momentum=0.1, affine=False, track_running_stats=True)
          (4): ReLU(inplace=True)
          (5): Conv2d(80, 80, kernel_size=(3, 3), stride=(1, 1), padding=(1, 1), groups=80, bias=False)
          (6): BatchNorm2d(80, eps=1e-05, momentum=0.1, affine=False, track_running_stats=True)
          (7): Conv2d(80, 80, kernel_size=(1, 1), stride=(1, 1), bias=False)
          (8): BatchNorm2d(80, eps=1e-05, momentum=0.1, affine=False, track_running_stats=True)
          (9): ReLU(inplace=True)
          (10): Conv2d(80, 80, kernel_size=(3, 3), stride=(1, 1), padding=(1, 1), groups=80, bias=False)
          (11): BatchNorm2d(80, eps=1e-05, momentum=0.1, affine=False, track_running_stats=True)
          (12): Conv2d(80, 80, kernel_size=(1, 1), stride=(1, 1), bias=False)
          (13): BatchNorm2d(80, eps=1e-05, momentum=0.1, affine=False, track_running_stats=True)
          (14): ReLU(inplace=True)
        )
      )
    )
    (8): ModuleList(
      (0): Choice_Block(
        (cb_main): Sequential(
          (0): Conv2d(160, 160, kernel_size=(1, 1), stride=(1, 1), bias=False)
          (1): BatchNorm2d(160, eps=1e-05, momentum=0.1, affine=False, track_running_stats=True)
          (2): ReLU(inplace=True)
          (3): Conv2d(160, 160, kernel_size=(3, 3), stride=(2, 2), padding=(1, 1), groups=160, bias=False)
          (4): BatchNorm2d(160, eps=1e-05, momentum=0.1, affine=False, track_running_stats=True)
          (5): Conv2d(160, 160, kernel_size=(1, 1), stride=(1, 1), bias=False)
          (6): BatchNorm2d(160, eps=1e-05, momentum=0.1, affine=False, track_running_stats=True)
          (7): ReLU(inplace=True)
        )
        (cb_proj): Sequential(
          (0): Conv2d(160, 160, kernel_size=(3, 3), stride=(2, 2), padding=(1, 1), groups=160, bias=False)
          (1): BatchNorm2d(160, eps=1e-05, momentum=0.1, affine=False, track_running_stats=True)
          (2): Conv2d(160, 160, kernel_size=(1, 1), stride=(1, 1), bias=False)
          (3): BatchNorm2d(160, eps=1e-05, momentum=0.1, affine=False, track_running_stats=True)
          (4): ReLU(inplace=True)
        )
      )
      (1): Choice_Block(
        (cb_main): Sequential(
          (0): Conv2d(160, 160, kernel_size=(1, 1), stride=(1, 1), bias=False)
          (1): BatchNorm2d(160, eps=1e-05, momentum=0.1, affine=False, track_running_stats=True)
          (2): ReLU(inplace=True)
          (3): Conv2d(160, 160, kernel_size=(5, 5), stride=(2, 2), padding=(2, 2), groups=160, bias=False)
          (4): BatchNorm2d(160, eps=1e-05, momentum=0.1, affine=False, track_running_stats=True)
          (5): Conv2d(160, 160, kernel_size=(1, 1), stride=(1, 1), bias=False)
          (6): BatchNorm2d(160, eps=1e-05, momentum=0.1, affine=False, track_running_stats=True)
          (7): ReLU(inplace=True)
        )
        (cb_proj): Sequential(
          (0): Conv2d(160, 160, kernel_size=(5, 5), stride=(2, 2), padding=(2, 2), groups=160, bias=False)
          (1): BatchNorm2d(160, eps=1e-05, momentum=0.1, affine=False, track_running_stats=True)
          (2): Conv2d(160, 160, kernel_size=(1, 1), stride=(1, 1), bias=False)
          (3): BatchNorm2d(160, eps=1e-05, momentum=0.1, affine=False, track_running_stats=True)
          (4): ReLU(inplace=True)
        )
      )
      (2): Choice_Block(
        (cb_main): Sequential(
          (0): Conv2d(160, 160, kernel_size=(1, 1), stride=(1, 1), bias=False)
          (1): BatchNorm2d(160, eps=1e-05, momentum=0.1, affine=False, track_running_stats=True)
          (2): ReLU(inplace=True)
          (3): Conv2d(160, 160, kernel_size=(7, 7), stride=(2, 2), padding=(3, 3), groups=160, bias=False)
          (4): BatchNorm2d(160, eps=1e-05, momentum=0.1, affine=False, track_running_stats=True)
          (5): Conv2d(160, 160, kernel_size=(1, 1), stride=(1, 1), bias=False)
          (6): BatchNorm2d(160, eps=1e-05, momentum=0.1, affine=False, track_running_stats=True)
          (7): ReLU(inplace=True)
        )
        (cb_proj): Sequential(
          (0): Conv2d(160, 160, kernel_size=(7, 7), stride=(2, 2), padding=(3, 3), groups=160, bias=False)
          (1): BatchNorm2d(160, eps=1e-05, momentum=0.1, affine=False, track_running_stats=True)
          (2): Conv2d(160, 160, kernel_size=(1, 1), stride=(1, 1), bias=False)
          (3): BatchNorm2d(160, eps=1e-05, momentum=0.1, affine=False, track_running_stats=True)
          (4): ReLU(inplace=True)
        )
      )
      (3): Choice_Block_x(
        (cb_main): Sequential(
          (0): Conv2d(160, 160, kernel_size=(3, 3), stride=(2, 2), padding=(1, 1), groups=160, bias=False)
          (1): BatchNorm2d(160, eps=1e-05, momentum=0.1, affine=False, track_running_stats=True)
          (2): Conv2d(160, 160, kernel_size=(1, 1), stride=(1, 1), bias=False)
          (3): BatchNorm2d(160, eps=1e-05, momentum=0.1, affine=False, track_running_stats=True)
          (4): ReLU(inplace=True)
          (5): Conv2d(160, 160, kernel_size=(3, 3), stride=(1, 1), padding=(1, 1), groups=160, bias=False)
          (6): BatchNorm2d(160, eps=1e-05, momentum=0.1, affine=False, track_running_stats=True)
          (7): Conv2d(160, 160, kernel_size=(1, 1), stride=(1, 1), bias=False)
          (8): BatchNorm2d(160, eps=1e-05, momentum=0.1, affine=False, track_running_stats=True)
          (9): ReLU(inplace=True)
          (10): Conv2d(160, 160, kernel_size=(3, 3), stride=(1, 1), padding=(1, 1), groups=160, bias=False)
          (11): BatchNorm2d(160, eps=1e-05, momentum=0.1, affine=False, track_running_stats=True)
          (12): Conv2d(160, 160, kernel_size=(1, 1), stride=(1, 1), bias=False)
          (13): BatchNorm2d(160, eps=1e-05, momentum=0.1, affine=False, track_running_stats=True)
          (14): ReLU(inplace=True)
        )
        (cb_proj): Sequential(
          (0): Conv2d(160, 160, kernel_size=(3, 3), stride=(2, 2), padding=(1, 1), groups=160, bias=False)
          (1): BatchNorm2d(160, eps=1e-05, momentum=0.1, affine=False, track_running_stats=True)
          (2): Conv2d(160, 160, kernel_size=(1, 1), stride=(1, 1), bias=False)
          (3): BatchNorm2d(160, eps=1e-05, momentum=0.1, affine=False, track_running_stats=True)
          (4): ReLU(inplace=True)
        )
      )
    )
    (9-15): 7 x ModuleList(
      (0): Choice_Block(
        (cb_main): Sequential(
          (0): Conv2d(160, 160, kernel_size=(1, 1), stride=(1, 1), bias=False)
          (1): BatchNorm2d(160, eps=1e-05, momentum=0.1, affine=False, track_running_stats=True)
          (2): ReLU(inplace=True)
          (3): Conv2d(160, 160, kernel_size=(3, 3), stride=(1, 1), padding=(1, 1), groups=160, bias=False)
          (4): BatchNorm2d(160, eps=1e-05, momentum=0.1, affine=False, track_running_stats=True)
          (5): Conv2d(160, 160, kernel_size=(1, 1), stride=(1, 1), bias=False)
          (6): BatchNorm2d(160, eps=1e-05, momentum=0.1, affine=False, track_running_stats=True)
          (7): ReLU(inplace=True)
        )
      )
      (1): Choice_Block(
        (cb_main): Sequential(
          (0): Conv2d(160, 160, kernel_size=(1, 1), stride=(1, 1), bias=False)
          (1): BatchNorm2d(160, eps=1e-05, momentum=0.1, affine=False, track_running_stats=True)
          (2): ReLU(inplace=True)
          (3): Conv2d(160, 160, kernel_size=(5, 5), stride=(1, 1), padding=(2, 2), groups=160, bias=False)
          (4): BatchNorm2d(160, eps=1e-05, momentum=0.1, affine=False, track_running_stats=True)
          (5): Conv2d(160, 160, kernel_size=(1, 1), stride=(1, 1), bias=False)
          (6): BatchNorm2d(160, eps=1e-05, momentum=0.1, affine=False, track_running_stats=True)
          (7): ReLU(inplace=True)
        )
      )
      (2): Choice_Block(
        (cb_main): Sequential(
          (0): Conv2d(160, 160, kernel_size=(1, 1), stride=(1, 1), bias=False)
          (1): BatchNorm2d(160, eps=1e-05, momentum=0.1, affine=False, track_running_stats=True)
          (2): ReLU(inplace=True)
          (3): Conv2d(160, 160, kernel_size=(7, 7), stride=(1, 1), padding=(3, 3), groups=160, bias=False)
          (4): BatchNorm2d(160, eps=1e-05, momentum=0.1, affine=False, track_running_stats=True)
          (5): Conv2d(160, 160, kernel_size=(1, 1), stride=(1, 1), bias=False)
          (6): BatchNorm2d(160, eps=1e-05, momentum=0.1, affine=False, track_running_stats=True)
          (7): ReLU(inplace=True)
        )
      )
      (3): Choice_Block_x(
        (cb_main): Sequential(
          (0): Conv2d(160, 160, kernel_size=(3, 3), stride=(1, 1), padding=(1, 1), groups=160, bias=False)
          (1): BatchNorm2d(160, eps=1e-05, momentum=0.1, affine=False, track_running_stats=True)
          (2): Conv2d(160, 160, kernel_size=(1, 1), stride=(1, 1), bias=False)
          (3): BatchNorm2d(160, eps=1e-05, momentum=0.1, affine=False, track_running_stats=True)
          (4): ReLU(inplace=True)
          (5): Conv2d(160, 160, kernel_size=(3, 3), stride=(1, 1), padding=(1, 1), groups=160, bias=False)
          (6): BatchNorm2d(160, eps=1e-05, momentum=0.1, affine=False, track_running_stats=True)
          (7): Conv2d(160, 160, kernel_size=(1, 1), stride=(1, 1), bias=False)
          (8): BatchNorm2d(160, eps=1e-05, momentum=0.1, affine=False, track_running_stats=True)
          (9): ReLU(inplace=True)
          (10): Conv2d(160, 160, kernel_size=(3, 3), stride=(1, 1), padding=(1, 1), groups=160, bias=False)
          (11): BatchNorm2d(160, eps=1e-05, momentum=0.1, affine=False, track_running_stats=True)
          (12): Conv2d(160, 160, kernel_size=(1, 1), stride=(1, 1), bias=False)
          (13): BatchNorm2d(160, eps=1e-05, momentum=0.1, affine=False, track_running_stats=True)
          (14): ReLU(inplace=True)
        )
      )
    )
    (16): ModuleList(
      (0): Choice_Block(
        (cb_main): Sequential(
          (0): Conv2d(320, 320, kernel_size=(1, 1), stride=(1, 1), bias=False)
          (1): BatchNorm2d(320, eps=1e-05, momentum=0.1, affine=False, track_running_stats=True)
          (2): ReLU(inplace=True)
          (3): Conv2d(320, 320, kernel_size=(3, 3), stride=(2, 2), padding=(1, 1), groups=320, bias=False)
          (4): BatchNorm2d(320, eps=1e-05, momentum=0.1, affine=False, track_running_stats=True)
          (5): Conv2d(320, 320, kernel_size=(1, 1), stride=(1, 1), bias=False)
          (6): BatchNorm2d(320, eps=1e-05, momentum=0.1, affine=False, track_running_stats=True)
          (7): ReLU(inplace=True)
        )
        (cb_proj): Sequential(
          (0): Conv2d(320, 320, kernel_size=(3, 3), stride=(2, 2), padding=(1, 1), groups=320, bias=False)
          (1): BatchNorm2d(320, eps=1e-05, momentum=0.1, affine=False, track_running_stats=True)
          (2): Conv2d(320, 320, kernel_size=(1, 1), stride=(1, 1), bias=False)
          (3): BatchNorm2d(320, eps=1e-05, momentum=0.1, affine=False, track_running_stats=True)
          (4): ReLU(inplace=True)
        )
      )
      (1): Choice_Block(
        (cb_main): Sequential(
          (0): Conv2d(320, 320, kernel_size=(1, 1), stride=(1, 1), bias=False)
          (1): BatchNorm2d(320, eps=1e-05, momentum=0.1, affine=False, track_running_stats=True)
          (2): ReLU(inplace=True)
          (3): Conv2d(320, 320, kernel_size=(5, 5), stride=(2, 2), padding=(2, 2), groups=320, bias=False)
          (4): BatchNorm2d(320, eps=1e-05, momentum=0.1, affine=False, track_running_stats=True)
          (5): Conv2d(320, 320, kernel_size=(1, 1), stride=(1, 1), bias=False)
          (6): BatchNorm2d(320, eps=1e-05, momentum=0.1, affine=False, track_running_stats=True)
          (7): ReLU(inplace=True)
        )
        (cb_proj): Sequential(
          (0): Conv2d(320, 320, kernel_size=(5, 5), stride=(2, 2), padding=(2, 2), groups=320, bias=False)
          (1): BatchNorm2d(320, eps=1e-05, momentum=0.1, affine=False, track_running_stats=True)
          (2): Conv2d(320, 320, kernel_size=(1, 1), stride=(1, 1), bias=False)
          (3): BatchNorm2d(320, eps=1e-05, momentum=0.1, affine=False, track_running_stats=True)
          (4): ReLU(inplace=True)
        )
      )
      (2): Choice_Block(
        (cb_main): Sequential(
          (0): Conv2d(320, 320, kernel_size=(1, 1), stride=(1, 1), bias=False)
          (1): BatchNorm2d(320, eps=1e-05, momentum=0.1, affine=False, track_running_stats=True)
          (2): ReLU(inplace=True)
          (3): Conv2d(320, 320, kernel_size=(7, 7), stride=(2, 2), padding=(3, 3), groups=320, bias=False)
          (4): BatchNorm2d(320, eps=1e-05, momentum=0.1, affine=False, track_running_stats=True)
          (5): Conv2d(320, 320, kernel_size=(1, 1), stride=(1, 1), bias=False)
          (6): BatchNorm2d(320, eps=1e-05, momentum=0.1, affine=False, track_running_stats=True)
          (7): ReLU(inplace=True)
        )
        (cb_proj): Sequential(
          (0): Conv2d(320, 320, kernel_size=(7, 7), stride=(2, 2), padding=(3, 3), groups=320, bias=False)
          (1): BatchNorm2d(320, eps=1e-05, momentum=0.1, affine=False, track_running_stats=True)
          (2): Conv2d(320, 320, kernel_size=(1, 1), stride=(1, 1), bias=False)
          (3): BatchNorm2d(320, eps=1e-05, momentum=0.1, affine=False, track_running_stats=True)
          (4): ReLU(inplace=True)
        )
      )
      (3): Choice_Block_x(
        (cb_main): Sequential(
          (0): Conv2d(320, 320, kernel_size=(3, 3), stride=(2, 2), padding=(1, 1), groups=320, bias=False)
          (1): BatchNorm2d(320, eps=1e-05, momentum=0.1, affine=False, track_running_stats=True)
          (2): Conv2d(320, 320, kernel_size=(1, 1), stride=(1, 1), bias=False)
          (3): BatchNorm2d(320, eps=1e-05, momentum=0.1, affine=False, track_running_stats=True)
          (4): ReLU(inplace=True)
          (5): Conv2d(320, 320, kernel_size=(3, 3), stride=(1, 1), padding=(1, 1), groups=320, bias=False)
          (6): BatchNorm2d(320, eps=1e-05, momentum=0.1, affine=False, track_running_stats=True)
          (7): Conv2d(320, 320, kernel_size=(1, 1), stride=(1, 1), bias=False)
          (8): BatchNorm2d(320, eps=1e-05, momentum=0.1, affine=False, track_running_stats=True)
          (9): ReLU(inplace=True)
          (10): Conv2d(320, 320, kernel_size=(3, 3), stride=(1, 1), padding=(1, 1), groups=320, bias=False)
          (11): BatchNorm2d(320, eps=1e-05, momentum=0.1, affine=False, track_running_stats=True)
          (12): Conv2d(320, 320, kernel_size=(1, 1), stride=(1, 1), bias=False)
          (13): BatchNorm2d(320, eps=1e-05, momentum=0.1, affine=False, track_running_stats=True)
          (14): ReLU(inplace=True)
        )
        (cb_proj): Sequential(
          (0): Conv2d(320, 320, kernel_size=(3, 3), stride=(2, 2), padding=(1, 1), groups=320, bias=False)
          (1): BatchNorm2d(320, eps=1e-05, momentum=0.1, affine=False, track_running_stats=True)
          (2): Conv2d(320, 320, kernel_size=(1, 1), stride=(1, 1), bias=False)
          (3): BatchNorm2d(320, eps=1e-05, momentum=0.1, affine=False, track_running_stats=True)
          (4): ReLU(inplace=True)
        )
      )
    )
    (17-19): 3 x ModuleList(
      (0): Choice_Block(
        (cb_main): Sequential(
          (0): Conv2d(320, 320, kernel_size=(1, 1), stride=(1, 1), bias=False)
          (1): BatchNorm2d(320, eps=1e-05, momentum=0.1, affine=False, track_running_stats=True)
          (2): ReLU(inplace=True)
          (3): Conv2d(320, 320, kernel_size=(3, 3), stride=(1, 1), padding=(1, 1), groups=320, bias=False)
          (4): BatchNorm2d(320, eps=1e-05, momentum=0.1, affine=False, track_running_stats=True)
          (5): Conv2d(320, 320, kernel_size=(1, 1), stride=(1, 1), bias=False)
          (6): BatchNorm2d(320, eps=1e-05, momentum=0.1, affine=False, track_running_stats=True)
          (7): ReLU(inplace=True)
        )
      )
      (1): Choice_Block(
        (cb_main): Sequential(
          (0): Conv2d(320, 320, kernel_size=(1, 1), stride=(1, 1), bias=False)
          (1): BatchNorm2d(320, eps=1e-05, momentum=0.1, affine=False, track_running_stats=True)
          (2): ReLU(inplace=True)
          (3): Conv2d(320, 320, kernel_size=(5, 5), stride=(1, 1), padding=(2, 2), groups=320, bias=False)
          (4): BatchNorm2d(320, eps=1e-05, momentum=0.1, affine=False, track_running_stats=True)
          (5): Conv2d(320, 320, kernel_size=(1, 1), stride=(1, 1), bias=False)
          (6): BatchNorm2d(320, eps=1e-05, momentum=0.1, affine=False, track_running_stats=True)
          (7): ReLU(inplace=True)
        )
      )
      (2): Choice_Block(
        (cb_main): Sequential(
          (0): Conv2d(320, 320, kernel_size=(1, 1), stride=(1, 1), bias=False)
          (1): BatchNorm2d(320, eps=1e-05, momentum=0.1, affine=False, track_running_stats=True)
          (2): ReLU(inplace=True)
          (3): Conv2d(320, 320, kernel_size=(7, 7), stride=(1, 1), padding=(3, 3), groups=320, bias=False)
          (4): BatchNorm2d(320, eps=1e-05, momentum=0.1, affine=False, track_running_stats=True)
          (5): Conv2d(320, 320, kernel_size=(1, 1), stride=(1, 1), bias=False)
          (6): BatchNorm2d(320, eps=1e-05, momentum=0.1, affine=False, track_running_stats=True)
          (7): ReLU(inplace=True)
        )
      )
      (3): Choice_Block_x(
        (cb_main): Sequential(
          (0): Conv2d(320, 320, kernel_size=(3, 3), stride=(1, 1), padding=(1, 1), groups=320, bias=False)
          (1): BatchNorm2d(320, eps=1e-05, momentum=0.1, affine=False, track_running_stats=True)
          (2): Conv2d(320, 320, kernel_size=(1, 1), stride=(1, 1), bias=False)
          (3): BatchNorm2d(320, eps=1e-05, momentum=0.1, affine=False, track_running_stats=True)
          (4): ReLU(inplace=True)
          (5): Conv2d(320, 320, kernel_size=(3, 3), stride=(1, 1), padding=(1, 1), groups=320, bias=False)
          (6): BatchNorm2d(320, eps=1e-05, momentum=0.1, affine=False, track_running_stats=True)
          (7): Conv2d(320, 320, kernel_size=(1, 1), stride=(1, 1), bias=False)
          (8): BatchNorm2d(320, eps=1e-05, momentum=0.1, affine=False, track_running_stats=True)
          (9): ReLU(inplace=True)
          (10): Conv2d(320, 320, kernel_size=(3, 3), stride=(1, 1), padding=(1, 1), groups=320, bias=False)
          (11): BatchNorm2d(320, eps=1e-05, momentum=0.1, affine=False, track_running_stats=True)
          (12): Conv2d(320, 320, kernel_size=(1, 1), stride=(1, 1), bias=False)
          (13): BatchNorm2d(320, eps=1e-05, momentum=0.1, affine=False, track_running_stats=True)
          (14): ReLU(inplace=True)
        )
      )
    )
  )
  (last_conv): Sequential(
    (0): Conv2d(640, 1024, kernel_size=(1, 1), stride=(1, 1), bias=False)
    (1): BatchNorm2d(1024, eps=1e-05, momentum=0.1, affine=False, track_running_stats=True)
    (2): ReLU6(inplace=True)
  )
  (global_pooling): AdaptiveAvgPool2d(output_size=1)
  (classifier): Linear(in_features=1024, out_features=10, bias=False)
)


TCAPPDLL 2025-07-11 12:29:59.958576 - Epoch: 0 Iteration: 0  rank : 0  train.loss : 2.31121826171875  train.ips : 73.67872195829962 imgs/s
TCAPPDLL 2025-07-11 12:30:01.287993 - Epoch: 0 Iteration: 1  rank : 0  train.loss : 2.299835205078125  train.ips : 101.81585143828134 imgs/s
TCAPPDLL 2025-07-11 12:30:03.104217 - Epoch: 0 Iteration: 2  rank : 0  train.loss : 2.2773895263671875  train.ips : 109.41258257846992 imgs/s
…
